{
  "network_architecture": "ConvNet(\n  (features): Sequential(\n    (0): Conv2d(3, 32, kernel_size=(3, 3), stride=(1, 1), padding=(1, 1))\n    (1): BatchNorm2d(32, eps=1e-05, momentum=0.1, affine=True, track_running_stats=True)\n    (2): ReLU()\n    (3): Conv2d(32, 32, kernel_size=(3, 3), stride=(1, 1), padding=(1, 1))\n    (4): BatchNorm2d(32, eps=1e-05, momentum=0.1, affine=True, track_running_stats=True)\n    (5): ReLU()\n    (6): MaxPool2d(kernel_size=2, stride=2, padding=0, dilation=1, ceil_mode=False)\n    (7): Dropout(p=0.2, inplace=False)\n    (8): Conv2d(32, 64, kernel_size=(3, 3), stride=(1, 1), padding=(1, 1))\n    (9): BatchNorm2d(64, eps=1e-05, momentum=0.1, affine=True, track_running_stats=True)\n    (10): ReLU()\n    (11): Conv2d(64, 64, kernel_size=(3, 3), stride=(1, 1), padding=(1, 1))\n    (12): BatchNorm2d(64, eps=1e-05, momentum=0.1, affine=True, track_running_stats=True)\n    (13): ReLU()\n    (14): MaxPool2d(kernel_size=2, stride=2, padding=0, dilation=1, ceil_mode=False)\n    (15): Dropout(p=0.3, inplace=False)\n    (16): Conv2d(64, 128, kernel_size=(3, 3), stride=(1, 1), padding=(1, 1))\n    (17): BatchNorm2d(128, eps=1e-05, momentum=0.1, affine=True, track_running_stats=True)\n    (18): ReLU()\n    (19): Conv2d(128, 128, kernel_size=(3, 3), stride=(1, 1), padding=(1, 1))\n    (20): BatchNorm2d(128, eps=1e-05, momentum=0.1, affine=True, track_running_stats=True)\n    (21): ReLU()\n    (22): MaxPool2d(kernel_size=2, stride=2, padding=0, dilation=1, ceil_mode=False)\n    (23): Dropout(p=0.4, inplace=False)\n  )\n  (classifier): Sequential(\n    (0): Flatten(start_dim=1, end_dim=-1)\n    (1): Linear(in_features=2048, out_features=512, bias=True)\n    (2): BatchNorm1d(512, eps=1e-05, momentum=0.1, affine=True, track_running_stats=True)\n    (3): ReLU()\n    (4): Dropout(p=0.5, inplace=False)\n    (5): Linear(in_features=512, out_features=10, bias=True)\n  )\n)",
  "optimizer": "NAdam",
  "learning_rate": 0.001,
  "batch_size": 16,
  "training_log": [
    {
      "epoch": 1,
      "accuracy": 64.01,
      "avg_loss": 0.9974976068019867
    },
    {
      "epoch": 2,
      "accuracy": 71.46000000000001,
      "avg_loss": 0.8084225529193878
    },
    {
      "epoch": 3,
      "accuracy": 77.08,
      "avg_loss": 0.6510773328304291
…
